cnn/pytorch/test1/net.pkl (torch_old, 6711 bytes, 3 tensors)

weight f4 [10, 1]
0	0xbf50c0e8	-0.8154435
1	0xbee7a776	-0.4524495
2	0xbf053d7c	-0.5204694
3	0xbed221cc	-0.4104141
4	0xbf87dd2f	-1.0614375
5	0xbe4f100c	-0.20220965
6	0x3f05c1f2	0.5224906
7	0xbdd134d3	-0.102151535
8	0x3f700b06	0.9376682
9	0xbf3d6c02	-0.7399293

bias f4 [10]
0	0x3c8d9fc3	0.017288094
1	0x3f733cc2	0.95014584
2	0xbc881707	-0.016612543
3	0x3ed25528	0.41080594
4	0x3e766494	0.24061805
5	0xbceee27c	-0.02916073
6	0xbf05d97a	-0.5228497
7	0x3ef79678	0.48356986
8	0x3e055657	0.13021217
9	0xbe0efac7	-0.13962851

weight f4 [1, 10]
0	0x3ef601a5	0.4804813
1	0xbe59fe74	-0.21288472
2	0x3efe0e65	0.49620357
3	0xbef1aaac	-0.47200525
4	0x3ec14a21	0.37751868
5	0x3e1868d1	0.14883734
6	0xbe4688f3	-0.1938818
7	0xbe5c2497	-0.21498333
8	0x3f446799	0.7672058
9	0x3eea9e8b	0.45824084
